…
I0712 18:20:18.758930 11747 net.cpp:287] The NetState phase (0) differed from the phase (1) specified by a rule in layer cifar
I0712 18:20:18.758956 11747 net.cpp:287] The NetState phase (0) differed from the phase (1) specified by a rule in layer accuracy
I0712 18:20:18.759119 11747 net.cpp:42] Initializing net from parameters: 
name: "CIFAR10_quick"
state {
  phase: TRAIN
}
layer {
  name: "cifar"
  type: "Data"
  top: "data"
  top: "label"
  include {
    phase: TRAIN
  }
  transform_param {
    mean_file: "examples/cifar10/mean.binaryproto"
  }
  data_param {
    source: "examples/cifar10/cifar10_train_lmdb"
    batch_size: 100
    backend: LMDB
  }
}
layer {
  name: "conv1"
  type: "Convolution"
  bottom: "data"
  top: "conv1"
  param {
    lr_mult: 1
  }
  param {
    lr_mult: 2
  }
  convolution_param {
    num_output: 32
    pad: 1
    kernel_size: 3
    stride: 1
    weight_filler {
      type: "gaussian"
      std: 0.0001
    }
    bias_filler {
      type: "constant"
    }
  }
}
layer {
  name: "relu1"
  type: "ReLU"
  bottom: "conv1"
  top: "conv1"
}
layer {
  name: "conv2"
  type: "Convolution"
  bottom: "conv1"
  top: "conv2"
  param {
    lr_mult: 1
  }
  param {
    lr_mult: 2
  }
  convolution_param {
    num_output: 32
    pad: 1
    kernel_size: 3
    stride: 1
    weight_filler {
      type: "gaussian"
      std: 0.0001
    }
    bias_filler {
      type: "constant"
    }
  }
}
layer {
  name: "relu2"
  type: "ReLU"
  bottom: "conv2"
  top: "conv2"
}
layer {
  name: "pool1"
  type: "Pooling"
  bottom: "conv2"
  top: "pool1"
  pooling_param {
    pool: MAX
    kernel_size: 2
    stride: 2
  }
}
layer {
  name: "conv3"
  type: "Convolution"
  bottom: "pool1"
  top: "conv3"
  param {
    lr_mult: 1
  }
  param {
    lr_mult: 2
  }
  convolution_param {
    num_output: 32
    pad: 1
    kernel_size: 3
    stride: 1
    weight_filler {
      type: "gaussian"
      std: 0.0001
    }
    bias_filler {
      type: "constant"
    }
  }
}
layer {
  name: "relu3"
  type: "ReLU"
  bottom: "conv3"
  top: "conv3"
}
layer {
  name: "conv4"
  type: "Convolution"
  bottom: "conv3"
  top: "conv4"
  param {
    lr_mult: 1
  }
  param {
    lr_mult: 2
  }
  convolution_param {
    num_output: 32
    pad: 1
    kernel_size: 3
    stride: 1
    weight_filler {
      type: "gaussian"
      std: 0.0001
    }
    bias_filler {
      type: "constant"
    }
  }
}
layer {
  name: "relu4"
  type: "ReLU"
  bottom: "conv4"
  top: "conv4"
}
layer {
  name: "pool2"
  type: "Pooling"
  bottom: "conv4"
  top: "pool2"
  pooling_param {
    pool: MAX
    kernel_size: 2
    stride: 2
  }
}
layer {
  name: "conv5"
  type: "Convolution"
  bottom: "pool2"
  top: "conv5"
  param {
    lr_mult: 1
  }
  param {
    lr_mult: 2
  }
  convolution_param {
    num_output: 32
    pad: 1
    kernel_size: 3
    stride: 1
    weight_filler {
      type: "gaussian"
      std: 0.0001
    }
    bias_filler {
      type: "constant"
    }
  }
}
layer {
  name: "relu5"
  type: "ReLU"
  bottom: "conv5"
  top: "conv5"
}
layer {
  name: "conv6"
  type: "Convolution"
  bottom: "conv5"
  top: "conv6"
  param {
    lr_mult: 1
  }
  param {
    lr_mult: 2
  }
  convolution_param {
    num_output: 32
    pad: 1
    kernel_size: 3
    stride: 1
    weight_filler {
      type: "gaussian"
      std: 0.0001
    }
    bias_filler {
      type: "constant"
    }
  }
}
layer {
  name: "relu6"
  type: "ReLU"
  bottom: "conv6"
  top: "conv6"
}
layer {
  name: "pool3"
  type: "Pooling"
  bottom: "conv6"
  top: "pool3"
  pooling_param {
    pool: MAX
    kernel_size: 2
    stride: 2
  }
}
layer {
  name: "ip1"
  type: "InnerProduct"
  bottom: "pool3"
  top: "ip1"
  param {
    lr_mult: 1
  }
  param {
    lr_mult: 2
  }
  inner_product_param {
    num_output: 64
    weight_filler {
      type: "gaussian"
      std: 0.1
    }
    bias_filler {
      type: "constant"
    }
  }
}
layer {
  name: "ip2"
  type: "InnerProduct"
  bottom: "ip1"
  top: "ip2"
  param {
    lr_mult: 1
  }
  param {
    lr_mult: 2
  }
  inner_product_param {
    num_output: 10
    weight_filler {
      type: "gaussian"
      std: 0.1
    }
    bias_filler {
      type: "constant"
    }
  }
}
layer {
  name: "loss"
  type: "SoftmaxWithLoss"
  bottom: "ip2"
  bottom: "label"
  top: "loss"
}
I0712 18:20:18.759250 11747 layer_factory.hpp:74] Creating layer cifar
I0712 18:20:18.759274 11747 net.cpp:90] Creating Layer cifar
I0712 18:20:18.759284 11747 net.cpp:368] cifar -> data
I0712 18:20:18.759311 11747 net.cpp:368] cifar -> label
I0712 18:20:18.759325 11747 net.cpp:120] Setting up cifar
I0712 18:20:18.759335 11747 data_transformer.cpp:22] Loading mean file from: examples/cifar10/mean.binaryproto
I0712 18:20:18.759490 11747 db.cpp:34] Opened lmdb examples/cifar10/cifar10_train_lmdb
I0712 18:20:18.759557 11747 data_layer.cpp:52] output data size: 100,3,32,32
I0712 18:20:18.760119 11747 net.cpp:127] Top shape: 100 3 32 32 (307200)
I0712 18:20:18.760141 11747 net.cpp:127] Top shape: 100 (100)
I0712 18:20:18.760156 11747 layer_factory.hpp:74] Creating layer conv1
I0712 18:20:18.760200 11747 net.cpp:90] Creating Layer conv1
I0712 18:20:18.760217 11747 net.cpp:410] conv1 <- data
I0712 18:20:18.760248 11747 net.cpp:368] conv1 -> conv1
I0712 18:20:18.760272 11747 net.cpp:120] Setting up conv1
I0712 18:20:18.760900 11747 net.cpp:127] Top shape: 100 32 32 32 (3276800)
I0712 18:20:18.760926 11747 layer_factory.hpp:74] Creating layer relu1
I0712 18:20:18.760946 11747 net.cpp:90] Creating Layer relu1
I0712 18:20:18.760952 11747 net.cpp:410] relu1 <- conv1
I0712 18:20:18.760960 11747 net.cpp:357] relu1 -> conv1 (in-place)
I0712 18:20:18.760969 11747 net.cpp:120] Setting up relu1
I0712 18:20:18.760977 11747 net.cpp:127] Top shape: 100 32 32 32 (3276800)
I0712 18:20:18.760983 11747 layer_factory.hpp:74] Creating layer conv2
I0712 18:20:18.760995 11747 net.cpp:90] Creating Layer conv2
I0712 18:20:18.761001 11747 net.cpp:410] conv2 <- conv1
I0712 18:20:18.761009 11747 net.cpp:368] conv2 -> conv2
I0712 18:20:18.761019 11747 net.cpp:120] Setting up conv2
I0712 18:20:18.761380 11747 net.cpp:127] Top shape: 100 32 32 32 (3276800)
I0712 18:20:18.761397 11747 layer_factory.hpp:74] Creating layer relu2
I0712 18:20:18.761407 11747 net.cpp:90] Creating Layer relu2
I0712 18:20:18.761414 11747 net.cpp:410] relu2 <- conv2
I0712 18:20:18.761423 11747 net.cpp:357] relu2 -> conv2 (in-place)
I0712 18:20:18.761431 11747 net.cpp:120] Setting up relu2
I0712 18:20:18.761438 11747 net.cpp:127] Top shape: 100 32 32 32 (3276800)
I0712 18:20:18.761445 11747 layer_factory.hpp:74] Creating layer pool1
I0712 18:20:18.761453 11747 net.cpp:90] Creating Layer pool1
I0712 18:20:18.761458 11747 net.cpp:410] pool1 <- conv2
I0712 18:20:18.761466 11747 net.cpp:368] pool1 -> pool1
I0712 18:20:18.761477 11747 net.cpp:120] Setting up pool1
I0712 18:20:18.761502 11747 net.cpp:127] Top shape: 100 32 16 16 (819200)
I0712 18:20:18.761509 11747 layer_factory.hpp:74] Creating layer conv3
I0712 18:20:18.761524 11747 net.cpp:90] Creating Layer conv3
I0712 18:20:18.761530 11747 net.cpp:410] conv3 <- pool1
I0712 18:20:18.761540 11747 net.cpp:368] conv3 -> conv3
I0712 18:20:18.761549 11747 net.cpp:120] Setting up conv3
I0712 18:20:18.761864 11747 net.cpp:127] Top shape: 100 32 16 16 (819200)
I0712 18:20:18.761876 11747 layer_factory.hpp:74] Creating layer relu3
I0712 18:20:18.761889 11747 net.cpp:90] Creating Layer relu3
I0712 18:20:18.761895 11747 net.cpp:410] relu3 <- conv3
I0712 18:20:18.761903 11747 net.cpp:357] relu3 -> conv3 (in-place)
I0712 18:20:18.761909 11747 net.cpp:120] Setting up relu3
I0712 18:20:18.761927 11747 net.cpp:127] Top shape: 100 32 16 16 (819200)
I0712 18:20:18.761941 11747 layer_factory.hpp:74] Creating layer conv4
I0712 18:20:18.761952 11747 net.cpp:90] Creating Layer conv4
I0712 18:20:18.761958 11747 net.cpp:410] conv4 <- conv3
I0712 18:20:18.761966 11747 net.cpp:368] conv4 -> conv4
I0712 18:20:18.761975 11747 net.cpp:120] Setting up conv4
I0712 18:20:18.762292 11747 net.cpp:127] Top shape: 100 32 16 16 (819200)
I0712 18:20:18.762302 11747 layer_factory.hpp:74] Creating layer relu4
I0712 18:20:18.762310 11747 net.cpp:90] Creating Layer relu4
I0712 18:20:18.762316 11747 net.cpp:410] relu4 <- conv4
I0712 18:20:18.762322 11747 net.cpp:357] relu4 -> conv4 (in-place)
I0712 18:20:18.762331 11747 net.cpp:120] Setting up relu4
I0712 18:20:18.762336 11747 net.cpp:127] Top shape: 100 32 16 16 (819200)
I0712 18:20:18.762342 11747 layer_factory.hpp:74] Creating layer pool2
I0712 18:20:18.762349 11747 net.cpp:90] Creating Layer pool2
I0712 18:20:18.762356 11747 net.cpp:410] pool2 <- conv4
I0712 18:20:18.762364 11747 net.cpp:368] pool2 -> pool2
I0712 18:20:18.762372 11747 net.cpp:120] Setting up pool2
I0712 18:20:18.762382 11747 net.cpp:127] Top shape: 100 32 8 8 (204800)
I0712 18:20:18.762387 11747 layer_factory.hpp:74] Creating layer conv5
I0712 18:20:18.762398 11747 net.cpp:90] Creating Layer conv5
I0712 18:20:18.762404 11747 net.cpp:410] conv5 <- pool2
I0712 18:20:18.762413 11747 net.cpp:368] conv5 -> conv5
I0712 18:20:18.762421 11747 net.cpp:120] Setting up conv5
I0712 18:20:18.762738 11747 net.cpp:127] Top shape: 100 32 8 8 (204800)
I0712 18:20:18.762750 11747 layer_factory.hpp:74] Creating layer relu5
I0712 18:20:18.762759 11747 net.cpp:90] Creating Layer relu5
I0712 18:20:18.762765 11747 net.cpp:410] relu5 <- conv5
I0712 18:20:18.762773 11747 net.cpp:357] relu5 -> conv5 (in-place)
I0712 18:20:18.762779 11747 net.cpp:120] Setting up relu5
I0712 18:20:18.762786 11747 net.cpp:127] Top shape: 100 32 8 8 (204800)
I0712 18:20:18.762792 11747 layer_factory.hpp:74] Creating layer conv6
I0712 18:20:18.762800 11747 net.cpp:90] Creating Layer conv6
I0712 18:20:18.762805 11747 net.cpp:410] conv6 <- conv5
I0712 18:20:18.762814 11747 net.cpp:368] conv6 -> conv6
I0712 18:20:18.762823 11747 net.cpp:120] Setting up conv6
I0712 18:20:18.763154 11747 net.cpp:127] Top shape: 100 32 8 8 (204800)
I0712 18:20:18.763166 11747 layer_factory.hpp:74] Creating layer relu6
I0712 18:20:18.763175 11747 net.cpp:90] Creating Layer relu6
I0712 18:20:18.763180 11747 net.cpp:410] relu6 <- conv6
I0712 18:20:18.763187 11747 net.cpp:357] relu6 -> conv6 (in-place)
I0712 18:20:18.763195 11747 net.cpp:120] Setting up relu6
I0712 18:20:18.763201 11747 net.cpp:127] Top shape: 100 32 8 8 (204800)
I0712 18:20:18.763207 11747 layer_factory.hpp:74] Creating layer pool3
I0712 18:20:18.763214 11747 net.cpp:90] Creating Layer pool3
I0712 18:20:18.763219 11747 net.cpp:410] pool3 <- conv6
I0712 18:20:18.763228 11747 net.cpp:368] pool3 -> pool3
I0712 18:20:18.763237 11747 net.cpp:120] Setting up pool3
I0712 18:20:18.763247 11747 net.cpp:127] Top shape: 100 32 4 4 (51200)
I0712 18:20:18.763252 11747 layer_factory.hpp:74] Creating layer ip1
I0712 18:20:18.763264 11747 net.cpp:90] Creating Layer ip1
I0712 18:20:18.763270 11747 net.cpp:410] ip1 <- pool3
I0712 18:20:18.763278 11747 net.cpp:368] ip1 -> ip1
I0712 18:20:18.763289 11747 net.cpp:120] Setting up ip1
I0712 18:20:18.764353 11747 net.cpp:127] Top shape: 100 64 (6400)
I0712 18:20:18.764366 11747 layer_factory.hpp:74] Creating layer ip2
I0712 18:20:18.764375 11747 net.cpp:90] Creating Layer ip2
I0712 18:20:18.764381 11747 net.cpp:410] ip2 <- ip1
I0712 18:20:18.764391 11747 net.cpp:368] ip2 -> ip2
I0712 18:20:18.764400 11747 net.cpp:120] Setting up ip2
I0712 18:20:18.764436 11747 net.cpp:127] Top shape: 100 10 (1000)
I0712 18:20:18.764446 11747 layer_factory.hpp:74] Creating layer loss
I0712 18:20:18.764459 11747 net.cpp:90] Creating Layer loss
I0712 18:20:18.764466 11747 net.cpp:410] loss <- ip2
I0712 18:20:18.764472 11747 net.cpp:410] loss <- label
I0712 18:20:18.764482 11747 net.cpp:368] loss -> loss
I0712 18:20:18.764497 11747 net.cpp:120] Setting up loss
I0712 18:20:18.764528 11747 layer_factory.hpp:74] Creating layer loss
…
I0712 18:20:18.765316 11747 solver.cpp:154] Creating test net (#0) specified by net file: examples/cifar10/cifar10_quick_train_test.prototxt
I0712 18:20:18.765357 11747 net.cpp:287] The NetState phase (1) differed from the phase (0) specified by a rule in layer cifar
I0712 18:20:18.765542 11747 net.cpp:42] Initializing net from parameters: 
name: "CIFAR10_quick"
state {
  phase: TEST
}
layer {
  name: "cifar"
  type: "Data"
  top: "data"
  top: "label"
  include {
    phase: TEST
  }
  transform_param {
    mean_file: "examples/cifar10/mean.binaryproto"
  }
  data_param {
    source: "examples/cifar10/cifar10_test_lmdb"
    batch_size: 100
    backend: LMDB
  }
}
layer {
  name: "conv1"
  type: "Convolution"
  bottom: "data"
  top: "conv1"
  param {
    lr_mult: 1
  }
  param {
    lr_mult: 2
  }
  convolution_param {
    num_output: 32
    pad: 1
    kernel_size: 3
    stride: 1
    weight_filler {
      type: "gaussian"
      std: 0.0001
    }
    bias_filler {
      type: "constant"
    }
  }
}
layer {
  name: "relu1"
  type: "ReLU"
  bottom: "conv1"
  top: "conv1"
}
layer {
  name: "conv2"
  type: "Convolution"
  bottom: "conv1"
  top: "conv2"
  param {
    lr_mult: 1
  }
  param {
    lr_mult: 2
  }
  convolution_param {
    num_output: 32
    pad: 1
    kernel_size: 3
    stride: 1
    weight_filler {
      type: "gaussian"
      std: 0.0001
    }
    bias_filler {
      type: "constant"
    }
  }
}
layer {
  name: "relu2"
  type: "ReLU"
  bottom: "conv2"
  top: "conv2"
}
layer {
  name: "pool1"
  type: "Pooling"
  bottom: "conv2"
  top: "pool1"
  pooling_param {
    pool: MAX
    kernel_size: 2
    stride: 2
  }
}
layer {
  name: "conv3"
  type: "Convolution"
  bottom: "pool1"
  top: "conv3"
  param {
    lr_mult: 1
  }
  param {
    lr_mult: 2
  }
  convolution_param {
    num_output: 32
    pad: 1
    kernel_size: 3
    stride: 1
    weight_filler {
      type: "gaussian"
      std: 0.0001
    }
    bias_filler {
      type: "constant"
    }
  }
}
layer {
  name: "relu3"
  type: "ReLU"
  bottom: "conv3"
  top: "conv3"
}
layer {
  name: "conv4"
  type: "Convolution"
  bottom: "conv3"
  top: "conv4"
  param {
    lr_mult: 1
  }
  param {
    lr_mult: 2
  }
  convolution_param {
    num_output: 32
    pad: 1
    kernel_size: 3
    stride: 1
    weight_filler {
      type: "gaussian"
      std: 0.0001
    }
    bias_filler {
      type: "constant"
    }
  }
}
layer {
  name: "relu4"
  type: "ReLU"
  bottom: "conv4"
  top: "conv4"
}
layer {
  name: "pool2"
  type: "Pooling"
  bottom: "conv4"
  top: "pool2"
  pooling_param {
    pool: MAX
    kernel_size: 2
    stride: 2
  }
}
layer {
  name: "conv5"
  type: "Convolution"
  bottom: "pool2"
  top: "conv5"
  param {
    lr_mult: 1
  }
  param {
    lr_mult: 2
  }
  convolution_param {
    num_output: 32
    pad: 1
    kernel_size: 3
    stride: 1
    weight_filler {
      type: "gaussian"
      std: 0.0001
    }
    bias_filler {
      type: "constant"
    }
  }
}
layer {
  name: "relu5"
  type: "ReLU"
  bottom: "conv5"
  top: "conv5"
}
layer {
  name: "conv6"
  type: "Convolution"
  bottom: "conv5"
  top: "conv6"
  param {
    lr_mult: 1
  }
  param {
    lr_mult: 2
  }
  convolution_param {
    num_output: 32
    pad: 1
    kernel_size: 3
    stride: 1
    weight_filler {
      type: "gaussian"
      std: 0.0001
    }
    bias_filler {
      type: "constant"
    }
  }
}
layer {
  name: "relu6"
  type: "ReLU"
  bottom: "conv6"
  top: "conv6"
}
layer {
  name: "pool3"
  type: "Pooling"
  bottom: "conv6"
  top: "pool3"
  pooling_param {
    pool: MAX
    kernel_size: 2
    stride: 2
  }
}
layer {
  name: "ip1"
  type: "InnerProduct"
  bottom: "pool3"
  top: "ip1"
  param {
    lr_mult: 1
  }
  param {
    lr_mult: 2
  }
  inner_product_param {
    num_output: 64
    weight_filler {
      type: "gaussian"
      std: 0.1
    }
    bias_filler {
      type: "constant"
    }
  }
}
layer {
  name: "ip2"
  type: "InnerProduct"
  bottom: "ip1"
  top: "ip2"
  param {
    lr_mult: 1
  }
  param {
    lr_mult: 2
  }
  inner_product_param {
    num_output: 10
    weight_filler {
      type: "gaussian"
      std: 0.1
    }
    bias_filler {
      type: "constant"
    }
  }
}
layer {
  name: "accuracy"
  type: "Accuracy"
  bottom: "ip2"
  bottom: "label"
  top: "accuracy"
  include {
    phase: TEST
  }
}
layer {
  name: "loss"
  type: "SoftmaxWithLoss"
  bottom: "ip2"
  bottom: "label"
  top: "loss"
}
I0712 18:20:18.765662 11747 layer_factory.hpp:74] Creating layer cifar
I0712 18:20:18.765676 11747 net.cpp:90] Creating Layer cifar
I0712 18:20:18.765682 11747 net.cpp:368] cifar -> data
I0712 18:20:18.765696 11747 net.cpp:368] cifar -> label
I0712 18:20:18.765705 11747 net.cpp:120] Setting up cifar
I0712 18:20:18.765712 11747 data_transformer.cpp:22] Loading mean file from: examples/cifar10/mean.binaryproto
I0712 18:20:18.765801 11747 db.cpp:34] Opened lmdb examples/cifar10/cifar10_test_lmdb
I0712 18:20:18.765825 11747 data_layer.cpp:52] output data size: 100,3,32,32
I0712 18:20:18.766213 11747 net.cpp:127] Top shape: 100 3 32 32 (307200)
I0712 18:20:18.766226 11747 net.cpp:127] Top shape: 100 (100)
I0712 18:20:18.766232 11747 layer_factory.hpp:74] Creating layer label_cifar_1_split
I0712 18:20:18.766242 11747 net.cpp:90] Creating Layer label_cifar_1_split
I0712 18:20:18.766247 11747 net.cpp:410] label_cifar_1_split <- label
I0712 18:20:18.766255 11747 net.cpp:368] label_cifar_1_split -> label_cifar_1_split_0
I0712 18:20:18.766284 11747 net.cpp:368] label_cifar_1_split -> label_cifar_1_split_1
I0712 18:20:18.766295 11747 net.cpp:120] Setting up label_cifar_1_split
I0712 18:20:18.766307 11747 net.cpp:127] Top shape: 100 (100)
I0712 18:20:18.766314 11747 net.cpp:127] Top shape: 100 (100)
I0712 18:20:18.766319 11747 layer_factory.hpp:74] Creating layer conv1
I0712 18:20:18.766329 11747 net.cpp:90] Creating Layer conv1
I0712 18:20:18.766336 11747 net.cpp:410] conv1 <- data
I0712 18:20:18.766345 11747 net.cpp:368] conv1 -> conv1
I0712 18:20:18.766355 11747 net.cpp:120] Setting up conv1
I0712 18:20:18.766404 11747 net.cpp:127] Top shape: 100 32 32 32 (3276800)
I0712 18:20:18.766417 11747 layer_factory.hpp:74] Creating layer relu1
I0712 18:20:18.766424 11747 net.cpp:90] Creating Layer relu1
I0712 18:20:18.766437 11747 net.cpp:410] relu1 <- conv1
I0712 18:20:18.766455 11747 net.cpp:357] relu1 -> conv1 (in-place)
I0712 18:20:18.766463 11747 net.cpp:120] Setting up relu1
I0712 18:20:18.766470 11747 net.cpp:127] Top shape: 100 32 32 32 (3276800)
I0712 18:20:18.766476 11747 layer_factory.hpp:74] Creating layer conv2
I0712 18:20:18.766486 11747 net.cpp:90] Creating Layer conv2
I0712 18:20:18.766491 11747 net.cpp:410] conv2 <- conv1
I0712 18:20:18.766499 11747 net.cpp:368] conv2 -> conv2
I0712 18:20:18.766507 11747 net.cpp:120] Setting up conv2
I0712 18:20:18.766813 11747 net.cpp:127] Top shape: 100 32 32 32 (3276800)
I0712 18:20:18.766824 11747 layer_factory.hpp:74] Creating layer relu2
I0712 18:20:18.766834 11747 net.cpp:90] Creating Layer relu2
I0712 18:20:18.766839 11747 net.cpp:410] relu2 <- conv2
I0712 18:20:18.766845 11747 net.cpp:357] relu2 -> conv2 (in-place)
I0712 18:20:18.766852 11747 net.cpp:120] Setting up relu2
I0712 18:20:18.766860 11747 net.cpp:127] Top shape: 100 32 32 32 (3276800)
I0712 18:20:18.766865 11747 layer_factory.hpp:74] Creating layer pool1
I0712 18:20:18.766875 11747 net.cpp:90] Creating Layer pool1
I0712 18:20:18.766880 11747 net.cpp:410] pool1 <- conv2
I0712 18:20:18.766887 11747 net.cpp:368] pool1 -> pool1
I0712 18:20:18.766894 11747 net.cpp:120] Setting up pool1
I0712 18:20:18.766904 11747 net.cpp:127] Top shape: 100 32 16 16 (819200)
I0712 18:20:18.766911 11747 layer_factory.hpp:74] Creating layer conv3
I0712 18:20:18.766921 11747 net.cpp:90] Creating Layer conv3
I0712 18:20:18.766926 11747 net.cpp:410] conv3 <- pool1
I0712 18:20:18.766933 11747 net.cpp:368] conv3 -> conv3
I0712 18:20:18.766942 11747 net.cpp:120] Setting up conv3
I0712 18:20:18.767272 11747 net.cpp:127] Top shape: 100 32 16 16 (819200)
I0712 18:20:18.767287 11747 layer_factory.hpp:74] Creating layer relu3
I0712 18:20:18.767297 11747 net.cpp:90] Creating Layer relu3
I0712 18:20:18.767302 11747 net.cpp:410] relu3 <- conv3
I0712 18:20:18.767309 11747 net.cpp:357] relu3 -> conv3 (in-place)
I0712 18:20:18.767316 11747 net.cpp:120] Setting up relu3
I0712 18:20:18.767324 11747 net.cpp:127] Top shape: 100 32 16 16 (819200)
I0712 18:20:18.767329 11747 layer_factory.hpp:74] Creating layer conv4
I0712 18:20:18.767338 11747 net.cpp:90] Creating Layer conv4
I0712 18:20:18.767343 11747 net.cpp:410] conv4 <- conv3
I0712 18:20:18.767351 11747 net.cpp:368] conv4 -> conv4
I0712 18:20:18.767360 11747 net.cpp:120] Setting up conv4
I0712 18:20:18.767679 11747 net.cpp:127] Top shape: 100 32 16 16 (819200)
I0712 18:20:18.767689 11747 layer_factory.hpp:74] Creating layer relu4
I0712 18:20:18.767699 11747 net.cpp:90] Creating Layer relu4
I0712 18:20:18.767704 11747 net.cpp:410] relu4 <- conv4
I0712 18:20:18.767710 11747 net.cpp:357] relu4 -> conv4 (in-place)
I0712 18:20:18.767717 11747 net.cpp:120] Setting up relu4
I0712 18:20:18.767724 11747 net.cpp:127] Top shape: 100 32 16 16 (819200)
I0712 18:20:18.767730 11747 layer_factory.hpp:74] Creating layer pool2
I0712 18:20:18.767737 11747 net.cpp:90] Creating Layer pool2
I0712 18:20:18.767742 11747 net.cpp:410] pool2 <- conv4
I0712 18:20:18.767751 11747 net.cpp:368] pool2 -> pool2
I0712 18:20:18.767760 11747 net.cpp:120] Setting up pool2
I0712 18:20:18.767768 11747 net.cpp:127] Top shape: 100 32 8 8 (204800)
I0712 18:20:18.767773 11747 layer_factory.hpp:74] Creating layer conv5
I0712 18:20:18.767781 11747 net.cpp:90] Creating Layer conv5
I0712 18:20:18.767787 11747 net.cpp:410] conv5 <- pool2
I0712 18:20:18.767796 11747 net.cpp:368] conv5 -> conv5
I0712 18:20:18.767804 11747 net.cpp:120] Setting up conv5
I0712 18:20:18.768118 11747 net.cpp:127] Top shape: 100 32 8 8 (204800)
I0712 18:20:18.768131 11747 layer_factory.hpp:74] Creating layer relu5
I0712 18:20:18.768137 11747 net.cpp:90] Creating Layer relu5
I0712 18:20:18.768142 11747 net.cpp:410] relu5 <- conv5
I0712 18:20:18.768148 11747 net.cpp:357] relu5 -> conv5 (in-place)
I0712 18:20:18.768156 11747 net.cpp:120] Setting up relu5
I0712 18:20:18.768162 11747 net.cpp:127] Top shape: 100 32 8 8 (204800)
I0712 18:20:18.768172 11747 layer_factory.hpp:74] Creating layer conv6
I0712 18:20:18.768187 11747 net.cpp:90] Creating Layer conv6
I0712 18:20:18.768192 11747 net.cpp:410] conv6 <- conv5
I0712 18:20:18.768199 11747 net.cpp:368] conv6 -> conv6
I0712 18:20:18.768206 11747 net.cpp:120] Setting up conv6
I0712 18:20:18.768491 11747 net.cpp:127] Top shape: 100 32 8 8 (204800)
I0712 18:20:18.768501 11747 layer_factory.hpp:74] Creating layer relu6
I0712 18:20:18.768507 11747 net.cpp:90] Creating Layer relu6
I0712 18:20:18.768512 11747 net.cpp:410] relu6 <- conv6
I0712 18:20:18.768519 11747 net.cpp:357] relu6 -> conv6 (in-place)
I0712 18:20:18.768527 11747 net.cpp:120] Setting up relu6
I0712 18:20:18.768533 11747 net.cpp:127] Top shape: 100 32 8 8 (204800)
I0712 18:20:18.768538 11747 layer_factory.hpp:74] Creating layer pool3
I0712 18:20:18.768545 11747 net.cpp:90] Creating Layer pool3
I0712 18:20:18.768550 11747 net.cpp:410] pool3 <- conv6
I0712 18:20:18.768558 11747 net.cpp:368] pool3 -> pool3
I0712 18:20:18.768565 11747 net.cpp:120] Setting up pool3
I0712 18:20:18.768574 11747 net.cpp:127] Top shape: 100 32 4 4 (51200)
I0712 18:20:18.768579 11747 layer_factory.hpp:74] Creating layer ip1
I0712 18:20:18.768589 11747 net.cpp:90] Creating Layer ip1
I0712 18:20:18.768594 11747 net.cpp:410] ip1 <- pool3
I0712 18:20:18.768602 11747 net.cpp:368] ip1 -> ip1
I0712 18:20:18.768611 11747 net.cpp:120] Setting up ip1
I0712 18:20:18.769639 11747 net.cpp:127] Top shape: 100 64 (6400)
I0712 18:20:18.769651 11747 layer_factory.hpp:74] Creating layer ip2
I0712 18:20:18.769670 11747 net.cpp:90] Creating Layer ip2
I0712 18:20:18.769676 11747 net.cpp:410] ip2 <- ip1
I0712 18:20:18.769686 11747 net.cpp:368] ip2 -> ip2
I0712 18:20:18.769695 11747 net.cpp:120] Setting up ip2
I0712 18:20:18.769733 11747 net.cpp:127] Top shape: 100 10 (1000)
I0712 18:20:18.769742 11747 layer_factory.hpp:74] Creating layer ip2_ip2_0_split
I0712 18:20:18.769750 11747 net.cpp:90] Creating Layer ip2_ip2_0_split
I0712 18:20:18.769755 11747 net.cpp:410] ip2_ip2_0_split <- ip2
I0712 18:20:18.769763 11747 net.cpp:368] ip2_ip2_0_split -> ip2_ip2_0_split_0
I0712 18:20:18.769772 11747 net.cpp:368] ip2_ip2_0_split -> ip2_ip2_0_split_1
I0712 18:20:18.769780 11747 net.cpp:120] Setting up ip2_ip2_0_split
I0712 18:20:18.769788 11747 net.cpp:127] Top shape: 100 10 (1000)
I0712 18:20:18.769795 11747 net.cpp:127] Top shape: 100 10 (1000)
I0712 18:20:18.769800 11747 layer_factory.hpp:74] Creating layer accuracy
I0712 18:20:18.769812 11747 net.cpp:90] Creating Layer accuracy
I0712 18:20:18.769819 11747 net.cpp:410] accuracy <- ip2_ip2_0_split_0
I0712 18:20:18.769825 11747 net.cpp:410] accuracy <- label_cifar_1_split_0
I0712 18:20:18.769834 11747 net.cpp:368] accuracy -> accuracy
I0712 18:20:18.769841 11747 net.cpp:120] Setting up accuracy
…
